handcg2/assets/sign.tflite (tflite, 6500 bytes, 6 tensors)

sequential/dense/BiasAdd/ReadVariableOp f4 [20]
000000 53 3c 43 bf cd df 61 be 46 ba 0f bf 0a 6f c9 be
       -0.7626392 -0.2205803 -0.56143606 -0.3934253
000010 b7 43 e9 be 90 4d 3c bf b7 15 3e 3e 7e b5 74 bf
       -0.45559475 -0.7355585 0.18562971 -0.95589435
000020 18 06 0d bf 98 f2 59 3b 3e 8f 94 be 94 3e 1e bf
       -0.55087423 0.003325617 -0.29015535 -0.61814237
000030 b1 b3 7f be c1 e6 c6 be 10 1d e1 bd 2a e9 ab bd
       -0.2497089 -0.38847926 -0.10991871 -0.08394082
000040 48 1b 0f bf 91 44 44 bf 50 e7 f0 be 76 4e 19 bf
       -0.55901 -0.76667124 -0.47051477 -0.59885347

sequential/dense_2/BiasAdd/ReadVariableOp f4 [3]
000000 18 1a 16 3e d4 46 1f bf d2 d1 14 3f
       0.14658391 -0.6221745 0.5813266

sequential/dense_1/BiasAdd/ReadVariableOp f4 [10]
000000 ab 93 c1 3e 12 96 60 3b f4 55 28 3f 72 4d bd 3e
       0.37807974 0.0034269136 0.65756154 0.3697315
000010 c7 45 1f be e3 08 22 3f 14 54 d4 3e f0 bd fb be
       -0.15553962 0.6329481 0.41470397 -0.49168348
000020 eb 12 ce be 8f 62 87 bf
       -0.40248808 -1.0576953

sequential/dense/MatMul f4 [20, 42]
000000 20 d0 51 3e 0d 8a 4c be 0d 05 46 3f 97 ec 0a bf
       0.2048955 -0.19974537 0.77351457 -0.5426726
000010 f5 dd eb 3e e1 12 11 be 14 bf d1 3e 6f 5d 2d 3d
       0.46067777 -0.14167358 0.40966094 0.042325433
000020 f5 86 29 3e 59 a5 c3 bd e8 be 5e be 59 b9 cb bd
       0.16555388 -0.09553022 -0.21752512 -0.09947462
000030 0f 73 15 bd 4f 6d f1 3c 21 8b 1e 3e c9 f8 ed 3d
       -0.03648668 0.029471068 0.15482761 0.11619718
000040 c2 b3 fc bc 22 e1 35 3d 44 20 e9 be db 9c 0a be
       -0.030847434 0.044404157 -0.4553243 -0.13536398
000050 ae 7d 86 3c fb 6a 14 be 2d 59 d3 bc b5 9c ba 3d
       0.01641735 -0.14493935 -0.025799358 0.09111921
000060 e8 49 28 be ae 3d c6 3d 9c 81 14 bf cc a5 22 be
       -0.16434443 0.09679733 -0.5801027 -0.15883559
000070 00 01 37 3e dc 00 04 be 2b 34 ed 3d f3 c2 2a 3d
       0.17871475 -0.12890953 0.11582216 0.041689824
000080 31 8f 83 3d 8c bb c9 3d aa a4 13 be b5 13 7d be
       0.06423796 0.09850225 -0.14418283 -0.24714549
000090 91 20 bc 3e 9e 77 d5 bd 8b 97 05 3f 62 43 71 bd
       0.36743596 -0.10423206 0.5218436 -0.058902152
0000a0 d7 24 bf 3e 2c ff 69 3d b0 61 20 3e e8 42 73 be
       0.37332794 0.057128116 0.15662265 -0.23755991
0000b0 fb ac 1d 3e 76 ad a6 3e 9b c2 f0 3d 47 9e 8d 3e
       0.15398018 0.32554215 0.11755868 0.2765982
0000c0 67 d8 27 3e c1 57 ed bd 99 04 fb 3d d8 1b 3b be
       0.16391145 -0.11589003 0.12256736 -0.1827234
0000d0 26 77 1b 3e 26 44 ab 3e aa f0 a5 bd 54 c7 ee 3d
       0.1518217 0.3345043 -0.08102544 0.116591126
0000e0 00 0c 09 3e 21 c5 e6 3d f1 5a 51 3d 91 65 23 bd
       0.13383484 0.11268068 0.05111212 -0.039891783
0000f0 db a8 5f 3e 72 e9 ae 3e 82 c0 14 3d 0b ff 21 3e
       0.21841757 0.3416248 0.036316402 0.15819947
000100 09 41 51 be db 97 bc be 98 69 06 be 03 c5 17 bf
       -0.20434965 -0.36834607 -0.13126218 -0.5928499
000110 88 4c f4 3d 8f 44 b3 3e 7a 9b ae bd 1e 6c b1 bd
       0.1192866 0.35013244 -0.085257486 -0.086632
000120 32 9e 94 bd bf 27 20 bf e0 c1 aa be c1 6c 05 bf
       -0.07256736 -0.6256065 -0.3335104 -0.5211907
000130 c5 e4 96 bd c9 f2 9c 3e 45 3a a5 be 41 6d b6 3d
       -0.07367853 0.3065398 -0.3227102 0.08907557
000140 7b d4 f1 be c5 ba 93 be d9 49 6a be 93 86 30 bf
       -0.47232422 -0.2885343 -0.22879733 -0.68955344
000150 ad de 67 be 3e 4a 83 be 22 8f 20 bd f2 26 47 3f
       -0.22643538 -0.2564258 -0.039199002 0.777938
000160 49 2a 08 bd 01 d0 aa 3e a9 e3 9a bd 5b f5 9c 3e
       -0.03324345 0.3336182 -0.07562954 0.3065594
000170 cd ff 88 bd 41 db ae 3d f7 f8 51 bd 53 52 6a 3d
       -0.06689415 0.08537913 -0.051262822 0.057207417
000180 7d a7 c7 3d 9d de aa 3d 8f 3d ba bc c1 3e 2e 3e
       0.09748743 0.08343241 -0.022734432 0.17016126
000190 28 c9 ef bc 75 64 00 3e 82 59 6c 3e dc d4 4c 3d
       -0.029270723 0.12538321 0.2308102 0.050007686
0001a0 d0 71 92 bb a9 42 d2 bd 8b 81 81 bd fc 35 b9 be
       -0.004469134 -0.10266621 -0.063235365 -0.36174
0001b0 37 99 ad 3d c2 6e c3 3d 9a 83 fb 3d 56 99 ac 3d
       0.08476489 0.0954261 0.122809604 0.08427684
0001c0 5f 44 55 bd 71 02 30 bf 3a c4 22 3d d1 7a 03 bf
       -0.052067157 -0.68753725 0.039737917 -0.5135928
0001d0 68 03 3f be 10 00 e7 bd 28 79 e9 3d 5c 4e e4 3d
       -0.18653643 -0.11279309 0.11400062 0.11147758
0001e0 6e 79 a4 bb 0f 08 a4 be 68 f0 24 3e 23 99 42 bf
       -0.0050193584 -0.32037398 0.16107333 -0.7601492
0001f0 25 01 f4 3d e1 aa e3 be 8d ae 92 be 90 95 5b 3e
       0.11914281 -0.44466308 -0.28648797 0.21443772
000200 e4 08 57 3f b5 63 ae be 31 2f 0c 3f 77 fb 11 bd
       0.8399794 -0.34060445 0.5475951 -0.035640206
000210 31 d1 05 3f 10 cb 5f bd 08 1d bd 3d 1b 2b d9 3c
       0.52272326 -0.054637015 0.09234053 0.026509812
000220 09 cc b3 be cc 75 2a be 5b 7a 9c 3d 29 48 13 3d
       -0.35116604 -0.16646498 0.07640525 0.03595749
000230 68 09 02 3e 92 5a 9f 3d 91 80 43 be 5f fa ee 3d
       0.126989 0.07780947 -0.19092013 0.11668848
000240 57 54 b8 be da 7b e8 bd 33 71 80 3e f9 4f 9b bd
       -0.36001846 -0.11351748 0.25086364 -0.07583613
000250 21 11 06 3e 10 17 16 3e 46 eb 07 bd 7e 84 2d 3e
       0.13092472 0.14657235 -0.03318336 0.16945073
000260 7d f3 9f be 9d 9b cb be 14 f0 8a 3e ef 33 7e 3d
       -0.31240454 -0.3976716 0.2713629 0.062061246
000270 be 6d 97 3e 88 ab 24 3e ff 56 3b be bb 80 2e 3e
       0.29575914 0.16081059 -0.18294905 0.17041294
000280 88 5b 9b bd b0 4d 96 be 71 66 9b 3e a3 eb 8a 3d
       -0.075858176 -0.29356146 0.30351594 0.067832254
000290 8a 3f ae 3e a7 db 32 3e b5 b7 3e 3e 18 49 93 3d
       0.3403285 0.17466603 0.18624766 0.07191676
0002a0 c0 71 7a 3c fc da dc 3d ad 22 45 bf 47 1c 5e bf
       0.015285909 0.107839555 -0.77006036 -0.867619
0002b0 d0 99 da be 9d a7 0c bf 06 12 ce be 2c c2 f5 be
       -0.42695475 -0.5494326 -0.40248126 -0.47999704
0002c0 11 17 1c be ee 92 d4 be 86 3a a6 3e 0b 3e 8a bd
       -0.15243174 -0.41518348 0.32466525 -0.06750115
0002d0 a7 a5 06 be c8 25 2f bb 13 1c ad be a9 49 f8 3d
       -0.13149129 -0.00267254 -0.3381048 0.121234246
0002e0 d5 10 ab bc b8 20 d2 3d 07 8c 47 3e 48 fd 12 be
       -0.02088205 0.10260147 0.1948701 -0.14354432
0002f0 60 16 c4 be 05 7a d1 3c 30 56 f5 be 3c ff e7 3d
       -0.3829832 0.025570879 -0.47917318 0.11327979
000300 04 c1 3e be 7b e0 13 3e de 2b 89 3d c4 4d 8c 3d
       -0.18628317 0.14441101 0.0669782 0.0685077
000310 92 61 28 be c8 e9 89 bd c2 01 88 be da 16 06 3e
       -0.1644347 -0.06734043 -0.2656384 0.13094655
000320 59 b7 1b bf 53 09 4c 3e dc dc 81 3e e6 85 22 3e
       -0.6082664 0.19925432 0.25363815 0.1587139
000330 95 a7 0a bd b3 13 37 3e 85 31 fe be b5 ec 57 3e
       -0.033851225 0.17878608 -0.49647155 0.2108639
000340 b0 56 54 bf d4 1b 85 3e 04 67 1b 3e b0 36 aa bc
       -0.82944775 0.25997794 0.15176016 -0.02077803
000350 7d 59 d9 3a b5 4d 2f 3e 1f e4 8f bd e4 70 c7 3e
       0.0016582456 0.17119487 -0.070259325 0.38953316
000360 4f 5d cc bc 97 6f 22 3e 55 92 e8 bc 5c 84 2d be
       -0.024946837 0.1586288 -0.028390089 -0.16945022
000370 f6 4a 86 3d ae 9d 15 3d ae c5 b5 3d b5 aa fc 3d
       0.065572664 0.03652733 0.08875595 0.12337247
000380 df d8 28 3b 94 10 41 3e 2a 00 aa bc 46 98 02 3e
       0.002576403 0.1885398 -0.020752031 0.127534
000390 e3 31 88 3d d2 0c 95 bc 9a 78 1d 3d 64 3a 28 3d
       0.0665014 -0.01819459 0.038445093 0.04107131
0003a0 50 af e0 3d 4b 6a 9f 3d ef f3 98 3e d1 67 7c 3e
       0.10970938 0.07783946 0.29873607 0.24648978
0003b0 72 fa d4 3c d7 65 f2 3c 91 52 20 3d 58 25 2c be
       0.025998328 0.029589577 0.03914124 -0.1681112
0003c0 e2 ef 0e 3e 71 84 f1 bd 57 ef 83 3e c0 ed 5a 3e
       0.13958696 -0.11792839 0.2576854 0.21379757
0003d0 88 f2 27 bd e1 2f da 3c 87 30 90 3d 08 06 93 bf
       -0.04100278 0.026634159 0.07040506 -1.1486216
0003e0 80 64 93 3d 1a d0 81 be c3 46 80 3c b8 7c cc 3c
       0.07196903 -0.2535408 0.015658742 0.024961814
0003f0 fc 4b 45 be c3 86 97 be 03 56 25 3e d5 da 8d 3f
       -0.19267267 -0.29595003 0.16146092 1.1082407

sequential/dense_1/MatMul f4 [10, 20]
000000 24 c2 0a bf 76 f9 29 3f ef 4c 2d 3f 0e 18 fd bd
       -0.54202485 0.6639627 0.67695516 -0.12358104
000010 80 a5 3d 3d b6 1f 5a 3f de e9 b7 3f b9 b3 1a bd
       0.04630041 0.8520464 1.4368246 -0.037769053
000020 bc e4 3d bf b8 96 0f be a9 0f 57 be 29 2c 2a bf
       -0.74177146 -0.14022338 -0.21002068 -0.66473633
000030 7f af f0 bc 7b ae 64 bd 0a cb d1 3a 11 84 21 be
       -0.029380558 -0.05583046 0.0016005945 -0.15773036
000040 30 3c c9 3d e3 a4 f1 3e bb e8 0e 3f 41 87 24 be
       0.09825933 0.4719611 0.5582387 -0.1606722
000050 6f 3f 2b 3f a1 0f 7e 3e 78 c9 e3 3e cf d8 b4 3e
       0.66893667 0.2481065 0.44489646 0.35321662
000060 b8 de 30 3f ef 3c 48 3f b7 60 99 be 11 da 21 3f
       0.6908984 0.7821798 -0.299566 0.6322337
000070 d5 da 69 3e d7 af 2c bf e3 b0 85 3e cd 9d b1 3e
       0.22837384 -0.6745581 0.26111516 0.34690705
000080 05 5c 8a 3e 93 01 24 3f 6f 52 1b bf 3b bf 09 bf
       0.2702333 0.640649 -0.6067266 -0.5380742
000090 4b 99 0e 3f d8 4e b3 3e e7 6c 0a 3f 0d da 91 3e
       0.55702657 0.3502109 0.5407242 0.28486672
0000a0 29 b2 81 3d ba e8 f0 3d 91 9b 12 bf c0 36 36 bc
       0.063328095 0.11763139 -0.57268625 -0.011121452
0000b0 f9 98 35 3e 06 b5 85 bf 81 31 99 bf 28 3c 0d bf
       0.17734136 -1.0445869 -1.1968232 -0.55169916
0000c0 69 77 59 bf 9e 14 fe 3e 70 25 8d bf 85 5c b1 3d
       -0.8494783 0.49625105 -1.102705 0.08660225
0000d0 3d f2 12 3f 22 93 ef 3d 54 ca 8d bf 61 04 12 3f
       0.57400876 0.11697985 -1.1077371 0.5703793
0000e0 9c 4c 0a 3e 0f 4b 9d be 7e 56 13 be 57 a8 15 3e
       0.13505787 -0.30721328 -0.14388463 0.14614998
0000f0 32 82 01 bf a4 0b 31 3f 63 c9 17 3f a7 36 15 bf
       -0.5058929 0.6915839 0.59291667 -0.5828652
000100 7a a9 e7 3d 72 9d c1 3e 18 a7 16 3f 45 68 82 3d
       0.11311622 0.37815434 0.58848715 0.06367544
000110 e6 75 6e 3f b0 d2 8b bd 6a 0e 6c 3f 6d 1f 52 be
       0.9314865 -0.06827295 0.92209494 -0.205198
000120 89 64 8c be e7 c1 1a bf 46 58 a1 3d 6c cd 16 bd
       -0.27420452 -0.6045212 0.07878165 -0.036817
000130 21 8f d4 be b0 39 29 3e 3f 72 96 be 3b da 0b bf
       -0.4151545 0.16525912 -0.29384038 -0.5462987
000140 2e f6 53 be 1a 53 b0 3c 56 1f 2e bd 6b bb e2 3b
       -0.20699379 0.021524 -0.042510353 0.0069193146
000150 d3 18 97 bd b5 03 2c bf 0b c6 22 be a0 f6 37 3f
       -0.07377782 -0.67193156 -0.1589586 0.71860695
000160 bf 19 50 3d f0 6c a1 be 96 11 67 3d a4 07 4e 3f
       0.050805803 -0.31528425 0.056413256 0.8048041
000170 5f 81 61 bb 8f ef 8f 3d 12 88 6a bd c6 9d 9e be
       -0.0034409387 0.07028114 -0.057258673 -0.30979747
000180 1a a2 1e be 2f ee 24 3d 64 38 c8 be ff 3e f4 3d
       -0.15491524 0.040266212 -0.39105523 0.11926078
000190 ea a7 22 3e 82 8d 75 be 8d 19 49 bf 31 84 2e 3e
       0.15884367 -0.23979762 -0.7855461 0.17042615
0001a0 b5 af a9 bd d3 87 5d bf f3 34 01 bf 0e 86 9f be
       -0.082854666 -0.86535376 -0.5047142 -0.31156963
0001b0 d2 6d 01 bf 0f 0c 06 3f 24 39 32 bf c6 9e 92 be
       -0.505582 0.5236215 -0.6961844 -0.2863676
0001c0 eb 06 51 be 1d 24 b9 3e 45 80 94 bf a1 76 a5 3e
       -0.20412795 0.36160365 -1.1601645 0.3231707
0001d0 7b 97 10 be cb 13 96 be 31 06 ed be c6 d7 69 3e
       -0.14120285 -0.29311976 -0.46293786 0.22836217
0001e0 be b2 13 bf d5 3b a9 3d 83 88 35 3e ec 38 0b bf
       -0.57694614 0.08263365 0.17727856 -0.5438373
0001f0 d8 a4 64 bf 63 97 ed be 36 71 80 3e 43 83 d2 bd
       -0.8931403 -0.4640456 0.25086373 -0.102789424
000200 75 40 19 3d d7 b3 5c 3f 72 8a 83 3e e8 ac 2e bf
       0.037414987 0.86211914 0.25691563 -0.68232584
000210 80 b2 20 bf 44 0a 19 bf 01 f3 06 bd 55 58 32 3f
       -0.6277237 -0.5978129 -0.03294659 0.69666034
000220 3a b4 84 bf e7 69 a8 3e 33 74 51 bf ae d1 08 bf
       -1.0367501 0.32893297 -0.8181793 -0.53444946
000230 b6 06 9b bc 7c e8 04 3e b8 2d d1 3e 73 f4 d1 3c
       -0.018924098 0.12979311 0.40855193 0.025629258
000240 0d 09 36 3c 03 08 22 3d c8 92 3a be 6a f4 18 bf
       0.011110556 0.03955842 -0.18220055 -0.59747946
000250 69 8d bc bd 42 90 6b bf ff 7e da 3d 70 4b 8b 3e
       -0.09206659 -0.92016995 0.10668754 0.27205992
000260 eb ae 6c 3d 86 50 29 bd fb e2 50 3e ef c6 43 bf
       0.057784002 -0.04133656 0.20399086 -0.76475424
000270 7d 67 65 bd 73 dc 29 3f 6a de 75 3f b6 16 9f 3e
       -0.056006897 0.66352004 0.960425 0.31072015
000280 95 52 1e 3f e8 a7 84 3d b3 05 ff 3c 1b a3 ac 3e
       0.6184476 0.06477338 0.031130647 0.3371819
000290 9f e9 04 bf 2e 79 07 3f c8 54 b6 be 79 0b ba 3e
       -0.5191898 0.5291928 -0.35611558 0.36336878
0002a0 9d 18 f4 3d f2 3f 9f be f6 1f 94 3e 0b 97 a5 3e
       0.11918757 -0.31103474 0.28930634 0.323418
0002b0 02 9a 01 3f 5b 2b 2a 3f 06 4b ba 3d 23 ed 97 be
       0.5062562 0.66472405 0.09096341 -0.29673108
0002c0 b4 e8 1a 3f bb 20 2f 3e 30 f2 63 3f 29 a0 24 3f
       0.60511327 0.1710233 0.89041424 0.64306885
0002d0 05 87 55 be e5 e1 c6 bd 2d a5 d0 3a 41 c0 50 be
       -0.20852287 -0.09711055 0.0015918367 -0.20385839
0002e0 6f 69 08 3f 03 ed 13 bf 81 01 4e bf d1 05 45 bf
       0.5328588 -0.57783526 -0.80471045 -0.76962
0002f0 1d 0e 15 bd 6f 96 74 be d1 79 4b be 26 6e 1b 3c
       -0.036390413 -0.23885511 -0.19870688 0.009486711
000300 d0 c3 b8 be 89 42 1d bf 4d b0 3d 3f 49 bc 11 3e
       -0.36086893 -0.6142965 0.7409714 0.14231981
000310 56 fe 07 bf d2 76 82 bd 45 84 1c 3f f6 5a fc be
       -0.5312246 -0.063703194 0.6113933 -0.49288148

sequential/dense_2/MatMul f4 [3, 10]
000000 8d 5c 50 3f b7 4e a2 be 0b f0 82 be 02 77 6d 3f
       0.8139122 -0.3170068 -0.25573763 0.92759717
000010 ae 0d a0 bf 80 d1 0c bf 44 35 a0 3f 33 ef 0e bf
       -1.2504175 -0.5500717 1.2516255 -0.5583374
000020 b0 14 b2 be 74 ae 27 bf 18 ae 29 3f 3e d5 81 3f
       -0.34781408 -0.6550057 0.6628127 1.0143201
000030 14 0f 45 be 7b 7b ef 3e e4 79 75 3f 75 ce 28 bf
       -0.19244033 0.46773896 0.95889115 -0.6594003
000040 73 fb 53 bf 81 dc 62 bd d6 cb 81 3f 76 10 f3 3e
       -0.82805556 -0.05538607 1.0140331 0.47473496
000050 66 9d 7c bf 92 69 61 3e 35 c2 9d 3f 7d 81 e9 be
       -0.9867767 0.22012928 1.2324892 -0.45606604
000060 6a 40 82 bf 05 f2 78 3f 4a 93 b1 be 0a 64 82 bf
       -1.0175908 0.9724429 -0.34682685 -1.018678
000070 40 a0 13 3f 56 63 24 3f
       0.576664 0.64214075
